model/model.pt (torch, 114366 bytes, 16 tensors)

conv1.weight f4 [3, 3, 3, 3]
0	0x3db37ddc	0.0876424
1	0x3e4bb7d0	0.19894338
2	0x3db42b0c	0.08797273
3	0xbcd38297	-0.025819106
4	0x3e23461e	0.15944716
5	0xbe1960e3	-0.14978366
6	0x3e0d0f77	0.1377543
7	0x3dbf4c8b	0.09340771
8	0x3cb8bb99	0.022550391
9	0xbe378996	-0.17923579
10	0x3da233da	0.07920046
11	0x3df3f584	0.11912063
12	0xbe2f5f39	-0.17126168
13	0x3d686208	0.056734115
14	0x3e0ea4f2	0.13930109
15	0x3dd7c635	0.10535852
16	0x3e1fad26	0.15593395
17	0xbe01ed4b	-0.12688176
18	0xbe38f9a7	-0.18063985
19	0xbe2e2a6c	-0.1700837
20	0xbda91212	-0.082554
21	0xbe40f994	-0.18845206
22	0xbe40c8c7	-0.1882659
23	0x3d994a37	0.074848585
24	0x3d9a55bb	0.07535883
25	0xbdf779a5	-0.12083749
26	0xbe214561	-0.15749122
27	0x3db413e0	0.08792853
28	0x3e5d6e94	0.21624213
29	0x3e1f81c6	0.15576848
30	0xbdd28ee5	-0.10281161
31	0xbd7a7f92	-0.061156817
32	0x3c41f99e	0.0118392985
33	0xbd49549f	-0.049152967
34	0x3e48a264	0.19593197
35	0xb87f7fa8	-6.0915627e-05
36	0xbe8143a0	-0.25246906
37	0xbc818bf5	-0.015813807
38	0xbe75a6e7	-0.2398945
39	0xbd7b7004	-0.061386123
40	0xbe12d26a	-0.14338079
41	0x3cd76782	0.026294474
42	0x3d2c1dcd	0.042020608
43	0xbe476de5	-0.19475515
44	0x3c3480a0	0.011016995
45	0xbe2c95aa	-0.16853967
46	0x3e2547de	0.16140696
47	0xbb9a5e63	-0.004710959
48	0x3dbc8cb8	0.092065275
49	0x3dd6595b	0.10466262
50	0x3a4c6572	0.0007797099
51	0xbc8123ac	-0.01576408
52	0x3e15bb52	0.14622238
53	0xbb949426	-0.004534262
54	0xbe6b0e9e	-0.22954795
55	0x3d8e8da1	0.06960607
56	0x3e19c146	0.15015134
57	0x3db3caf9	0.08778948
58	0xbe16dfa5	-0.14733751
59	0xbe230a2b	-0.15921848
60	0xbd170203	-0.036867153
61	0xbd158a9b	-0.036509138
62	0x3d15b52c	0.036549732
63	0xbe854767	-0.26031038
64	0x3dca09ec	0.09865174
65	0xbe392850	-0.18081784
66	0xbe887af6	-0.26656312
67	0x3dc75194	0.09732357
68	0x3db3043a	0.087410405
69	0x3c002722	0.00782183
70	0x3c9e7669	0.019343572
71	0xbc91858e	-0.01776388
72	0xbcc78421	-0.024354996
73	0xbd5129c4	-0.05106522
74	0x3ddf01c2	0.10889007
75	0xbe4e8782	-0.2016888
76	0xbc9019d0	-0.017590433
77	0xbe05afa1	-0.13055278
78	0x3de310fa	0.110872224
79	0x3d580beb	0.05274574
80	0xbdb01c06	-0.08599095

conv1.bias f4 [3]
0	0x3df8417e	0.12121867
1	0x3c822a70	0.015889376
2	0x3e2d5df3	0.1693037

temp.weight f4 [6, 3, 3, 3]
0	0xbe783bb1	-0.2424152
1	0xbd504a77	-0.050852265
2	0xbe5a63ae	-0.21327087
3	0xbd7a1209	-0.061052356
4	0xbd651b6c	-0.055934355
5	0x3e16dde0	0.14733076
6	0x3d802934	0.06257859
7	0xbe358ffa	-0.17730704
8	0xbe3b0d41	-0.18266775
9	0xbde0b39c	-0.10971758
10	0xbe2049b7	-0.1565312
11	0xbdfdb731	-0.123884566
12	0x3e075d00	0.1321907
13	0xbe25f88e	-0.16208097
14	0xbd0b7c7c	-0.034054264
15	0x3df9d0db	0.12198039
16	0xbd9a4d31	-0.07534254
17	0xbd8ad160	-0.06778216
18	0x3ef701d5	0.48243585
19	0x3e440948	0.19144166
20	0x3eba4b88	0.3638575
21	0x3ec2d375	0.38051954
22	0x3e853d7f	0.2602348
23	0x3eb75b99	0.3581207
24	0x3eda082a	0.42584354
25	0x3eb898cf	0.36054084
26	0x3e4da2d4	0.20081645
27	0xbd5a0daa	-0.053235687
28	0x3e2fb115	0.17157395
29	0x3e4e7662	0.20162347
30	0x3a2612bf	0.0006335191
31	0x3e3f653a	0.18690959
32	0xbabec534	-0.0014554621
33	0x3d7cbb52	0.06170208
34	0x3d2b3a8f	0.041803893
35	0xbc9b2ba6	-0.018941712
36	0xbe332c8e	-0.17497465
37	0xbe5e1d5b	-0.21690886
38	0x3bbae0d4	0.005703071
39	0xbd9ef58b	-0.07761677
40	0xbe5b9889	-0.21444906
41	0xbd38ce72	-0.045118757
42	0xbd98689b	-0.07441827
43	0x3d87f9d2	0.06639446
44	0x3d33702a	0.04380814
45	0x3e2e750c	0.17036837
46	0x3e44b6f7	0.1921042
47	0x3c8716af	0.016490309
48	0xbd928fa5	-0.07156304
49	0xbdc57dad	-0.096431114
50	0x3d4bcf82	0.04975844
51	0x3e3c18f9	0.18368901
52	0x3e520b2e	0.20512077
53	0xbd267b45	-0.040644903
54	0xbde28210	-0.11059964
55	0xbe0f784d	-0.14010735
56	0x3e25574a	0.1614658
57	0x3d9359a1	0.0719483
58	0xbd9ad95b	-0.075609885
59	0xbdd0a4a7	-0.10187655
60	0xbdf4a7bb	-0.119460545
61	0xbe1d4b24	-0.15360695
62	0xbe26f836	-0.16305622
63	0x3e079cac	0.1324336
64	0xbe275303	-0.1634026
65	0xbe2a35e8	-0.16622126
66	0x3c7e3c5c	0.0155173205
67	0xbde8ab72	-0.113608256
68	0xbd5d89fc	-0.05408667
69	0xbd9bf49e	-0.076150164
70	0xbd1a412f	-0.03765982
71	0xbe1a4394	-0.15064842
72	0x3ecc8cfa	0.39951307
73	0x3e00cc00	0.1257782
74	0x3e05d2de	0.1306872
75	0x3e838dc4	0.25694096
76	0x3e3468f0	0.17618155
77	0x3eca5cb1	0.39523843
78	0x3dd4e7d7	0.103957824
79	0x3ea48d88	0.3213923
80	0x3ea68798	0.32525325
81	0x3c13cd74	0.009021152
82	0xbe366abc	-0.17814153
83	0xbe2163f8	-0.15760791
84	0x3d0085bf	0.03137755
85	0xbdea3a11	-0.114368565
86	0x3e2941a0	0.1652894
87	0x3d950351	0.07276023
88	0xbdcc68c2	-0.099809185
89	0x3e6f656c	0.23378533
90	0xbe5593eb	-0.20857207
91	0xbe1a60de	-0.15076014
92	0x3dc79fa3	0.09747245
93	0xbe2208b9	-0.1582364
94	0x3dffc9d0	0.124896646
95	0x3e2c3c7e	0.16819951
96	0x3c30674a	0.0107668135
97	0xbd09152d	-0.03346746
98	0x3ac61506	0.0015112467
99	0x3e46a180	0.19397545
100	0x3e799c69	0.24376072
101	0x3e61f3c3	0.22065644
102	0x3ed495d1	0.4152055
103	0x3ed42801	0.4143677
104	0x3e557976	0.20847115
105	0x3edc1ff4	0.42993128
106	0x3ee7b545	0.45255485
107	0x3e8c0961	0.27350906
108	0x3dff99dd	0.12480519
109	0x3da0322f	0.07822072
110	0x3d8b1d98	0.06792754
111	0x3d0dda03	0.03463174
112	0xbd5afa41	-0.053461317
113	0x3c51dc16	0.01280882
114	0x3e0a6028	0.13513243
115	0xbd5ac350	-0.05340892
116	0x3d62899d	0.05530702
117	0xbdd2e6e0	-0.10297942
118	0xbe49aef5	-0.19695647
119	0xbdc35778	-0.09538168
120	0x3c31f056	0.010860523
121	0xbe10ae15	-0.14128907
122	0xbd2b19b2	-0.04177255
123	0xbe96dfdf	-0.29467675
124	0xbe92876e	-0.2861895
125	0xbe733597	-0.23750912
126	0x3dd83b14	0.10558143
127	0x3e34be02	0.17650607
128	0x3e3a6876	0.18203911
129	0x3da26323	0.07929065
130	0x3dd94057	0.10607975
131	0x3e15535c	0.1458258
132	0x3e3100c3	0.17285447
133	0x3e227546	0.15865049
134	0x3e28488b	0.16433923
135	0x3e554882	0.20828441
136	0x3dde78d9	0.108628936
137	0xbddb19f1	-0.10698307
138	0xbdfc2cee	-0.12313257
139	0x3e15b65d	0.14620347
140	0xbe3660a1	-0.17810299
141	0x3e25fe4e	0.16210291
142	0x3e300d73	0.1719263
143	0x3c62f83e	0.013853131
144	0xbd37ba02	-0.044855125
145	0xbd36d921	-0.044640664
146	0x3dae9dfa	0.085262254
147	0xbe41b06f	-0.1891496
148	0xbdc5d924	-0.09660557
149	0x3dd98279	0.10620589
150	0x3d5672a0	0.05235541
151	0xbd5e5d58	-0.05428824
152	0xbdb9558c	-0.0904952
153	0x3ddf412c	0.109011024
154	0x3e64d195	0.22345574
155	0x3e796d24	0.2435804
156	0x3d86da37	0.0658459
157	0xbc5ea104	-0.013588194
158	0x3e056dfc	0.13030237
159	0xbd5c3781	-0.05376387
160	0x3e499309	0.19684996
161	0xbc43b734	-0.0119455345

temp.bias f4 [6]
0	0x3e359837	0.17733847
1	0x3d0d640e	0.034519248
2	0x3e5c3f07	0.21508418
3	0x3d1b0f57	0.037856426
4	0x3dee54cd	0.11637268
5	0xbe4c81f7	-0.19971453

conv2.weight f4 [12, 6, 3, 3]
0	0x3df84d3b	0.121241055
1	0x3e021eb2	0.12707022
2	0xbcfa53aa	-0.030557472
3	0x3e67cad9	0.22635974
4	0x3e0601e0	0.13086653
5	0x3cd6ce33	0.02622137
6	0x3e4eff0b	0.20214479
7	0x3e282788	0.1642133
8	0xbc931e06	-0.017958652
9	0x3dc2e38a	0.09516056
10	0x3d978f56	0.07400386
11	0x3e0e4f68	0.13897479
12	0xbd1e2528	-0.038609654
13	0x3dffd367	0.12491494
14	0xbdd3e1dd	-0.103458144
15	0xbdb9643e	-0.09052323
16	0xbd35dda1	-0.044400815
17	0xbc184037	-0.009292654
18	0x3dc4e974	0.0961484
19	0x3dd41438	0.10355419
20	0x3c95d830	0.018291563
21	0x3dfa7b39	0.12230534
22	0x3e4bee49	0.19915117
23	0xbca3208b	-0.019912979
24	0xbb8d52a9	-0.0043128324
25	0x3e401757	0.18758903
26	0x3def8327	0.11694937
27	0x3e8cba33	0.2748581
28	0x3ded7361	0.115942724
29	0xbd55c74b	-0.052192014
30	0x3e170c49	0.1475078
31	0xbcdac32c	-0.026704393
32	0x3ddf89b8	0.1091494
33	0x3ca3b89d	0.019985491
34	0xbd8d5e77	-0.06902783
35	0xbe1426c3	-0.14467911
36	0xbdb69fb0	-0.08917177
37	0x3db56d43	0.08858731
38	0x3e111782	0.14169124
39	0x3dce2228	0.100651085
40	0xbc821dd8	-0.015883371
41	0x3d0484c6	0.032353185
42	0x3ae0e701	0.0017158688
43	0x3d954c34	0.07289925
44	0xbe161aed	-0.14658709
45	0x3e25e9ca	0.16202465
46	0xbd3d7473	-0.046253633
47	0xbd129946	-0.035790704
48	0xbcc747e5	-0.024326274
49	0x3c2d8084	0.010589723
50	0x3e0d214b	0.13782232
51	0x3e2111d1	0.15729453
52	0xbd8aa260	-0.06769252
53	0xbd575cc8	-0.052578717
54	0x3e3226f8	0.17397678
55	0x3e1c2029	0.15246643
56	0x3d79543a	0.06087134
57	0x3e4e3047	0.20135604
58	0x3d3fad88	0.04679635
59	0x3dde3145	0.10849241
60	0xbbe4ad8d	-0.0069786967
61	0x3d866700	0.065626144
62	0x3da7c0a3	0.081910394
63	0x3dded235	0.108799376
64	0x3c5712dd	0.013127056
65	0x3c0f72e6	0.008755421
66	0xbb8e8b0d	-0.0043500722
67	0xbd5a8391	-0.053348128
68	0x3b236125	0.0024929729
69	0x3d0ce566	0.03439846
70	0xbd8cbb90	-0.06871712
71	0x3e467b6d	0.1938302
72	0x3e6f5376	0.23371682
73	0x3e39deba	0.1815137
74	0x3e30c8f6	0.1726416
75	0xbab46b05	-0.0013764804
76	0x3ca4a63f	0.020098804
77	0x3e3a153d	0.18172164
78	0x3e4bf2f8	0.19916904
79	0x3e444d3e	0.1917009
80	0x3e1e6343	0.15467553
81	0x3e781352	0.2422612
82	0x3e29b23a	0.16571894
83	0xbd5f11e0	-0.054460406
84	0x3d526d35	0.05137368
85	0x3e1b3a5b	0.1515898
86	0x3e242907	0.16031276
87	0x3e28bc7a	0.16478148
88	0x3e57fd2d	0.21092673
89	0x3991178c	0.000276741
90	0x3dacca3f	0.08437013
91	0x3e07314b	0.13202398
92	0xbd5214be	-0.051289313
93	0x3e2b342c	0.1671912
94	0x3d7f0408	0.062259704
95	0x3caf449e	0.021395024
96	0xbd407540	-0.04698682
97	0xbd95f562	-0.07322194
98	0x3d98eca7	0.07467013
99	0x3e818196	0.2529418
100	0x3e05e4ed	0.1307561
101	0xbdd9518d	-0.10611258
102	0xbbf7ddc1	-0.007564277
103	0xbbfbb17a	-0.007681069
104	0x3e081afb	0.13291542
105	0x3e0ac17c	0.13550371
106	0x3e04c8f7	0.12967287
107	0x3c8e2dc9	0.017355816
108	0xbc4927dc	-0.01227757
109	0xbe32ea14	-0.17472106
110	0xbe123fcf	-0.14282154
111	0xbe347b70	-0.17625213
112	0x3cfa4f0c	0.03055527
113	0xbd941fe1	-0.07232643
114	0xbdf640a8	-0.12024051
115	0xbc82a578	-0.015948042
116	0xbe1abf61	-0.15112068
117	0x3dfc5dce	0.12322579
118	0xbcef419b	-0.029206088
119	0x3dc27256	0.09494464
120	0x3dac72ef	0.08420359
121	0xbd1893a3	-0.037250172
122	0x3e47a0e8	0.19494975
123	0xbcfc8fb6	-0.030830245
124	0x3e32c663	0.17458491
125	0xbd26f80d	-0.040763903
126	0xbdc3ff28	-0.095701516
127	0xbd2b64d4	-0.041844204
128	0xbd9ef6fc	-0.07761952
129	0xbddc6723	-0.10761859
130	0xbd823265	-0.06357268
131	0xbdefd905	-0.11711315
132	0x3dda99e1	0.10673881
133	0x3cf003f6	0.029298764
134	0x3d806898	0.0626995
135	0xbe49bfe9	-0.19702114
136	0xbe9a58f4	-0.3014599
137	0xbd21de2a	-0.039518513
138	0xbe2b854b	-0.16750066
139	0xbe3f451f	-0.18678711
140	0xbccb0530	-0.024782747
141	0xbd622347	-0.055209424
142	0xbdec8500	-0.11548805
143	0xbdd0dc6a	-0.10198291
144	0x3d907c73	0.07054987
145	0x3d3abdb7	0.045591082
146	0x3da3eeb7	0.080045156
147	0x3dec872a	0.11549218
148	0x3e25f4e4	0.162067
149	0x3da986b6	0.08277647
150	0x3df31224	0.118686944
151	0x3e588dec	0.21147889
152	0x3e0e8109	0.1391641
153	0x3e004766	0.12527236
154	0x3d7079c2	0.058709867
155	0xbc5c7a18	-0.013456844
156	0xbd38117f	-0.04493856
157	0xbdbebe1a	-0.09313603
158	0x3d862522	0.06550051
159	0x3cfce5e1	0.030871334
160	0xbcfb2073	-0.030655121
161	0x3d264310	0.0405913
162	0xbe0e126c	-0.13874215
163	0x3d1020c3	0.035187494
164	0xbe2feab2	-0.17179373
165	0xbe117a8c	-0.14206904
166	0xbc9e8e9f	-0.019355116
167	0xbe05f06f	-0.1308
168	0xbdcc3229	-0.09970505
169	0xbdadea3b	-0.084919415
170	0xbd02dba4	-0.031947747
171	0x3e1422e6	0.14466438
172	0x3e187ec7	0.14892112
173	0x3c8ccaea	0.0171866
174	0xbdab0e57	-0.083523445
175	0xbcb2dab7	-0.021832807
176	0x3e2152a1	0.15754177
177	0xbc268f99	-0.010166072
178	0x3db32c17	0.08748644
179	0x3e2b5e2c	0.16735142
180	0x3da7b3e4	0.08188608
181	0xbdb81580	-0.08988476
182	0x3d3c9f5f	0.046050426
183	0x3d89647d	0.0670862
184	0xbdcd058b	-0.10010823
185	0xbe1344fb	-0.14381783
186	0x3da683af	0.081305854
187	0xbe1325f2	-0.14369944
188	0x3d513e62	0.051084884
189	0xbe1d2f2b	-0.15350024
190	0xbe0d9574	-0.13826543
191	0xbe5b537a	-0.21418563
192	0xbe934c11	-0.28768972
193	0xbe9cd2ec	-0.3062967
194	0xbe130bf3	-0.14360027
195	0xbe9cfa37	-0.3065965
196	0xbe801b92	-0.25021034
197	0xbe780e53	-0.24224214
198	0x3e116176	0.14197335
199	0x3e3949c9	0.18094553
200	0x3db152a2	0.08658339
201	0xbcbde1d4	-0.023178972
202	0x3e238be0	0.15971327
203	0x3dd376ef	0.10325419
204	0xbd04543f	-0.032306906
205	0x3c5141e5	0.012772058
206	0x3e48ccc3	0.1960936
207	0xbc273882	-0.010206344
208	0xbcf5fe2d	-0.030028427
209	0xbd54327b	-0.051805954
210	0x3e43526f	0.19074415
211	0x3ca04295	0.019562999
212	0xbcfaed89	-0.030630844
213	0x3e0d678c	0.13809031
214	0x3e044532	0.12917021
215	0x3d9de487	0.07709604
216	0xbe09f971	-0.1347406
217	0xbd688fae	-0.05677765
218	0xbd93f115	-0.07223717
219	0xbe3d17ee	-0.1846616
220	0xbe0e0f93	-0.13873129
221	0xbaaccd66	-0.0013183772
222	0x3cc1258f	0.02357748
223	0xbe3f4790	-0.18679643
224	0xbe3f8175	-0.18701728
225	0x39b1f2ec	0.00033941062
226	0x3e20be8c	0.15697688
227	0x3d14842a	0.036258854
228	0x3c8dbe45	0.017302642
229	0x3dbb2b9c	0.09139177
230	0xbd3126e1	-0.04324997
231	0xbd565943	-0.05233122
232	0x3dd192d3	0.102330826
233	0x3e3cdeda	0.18444386
234	0x3d910a9a	0.070821
235	0xbd49adde	-0.04923808
236	0xbdfdb1c1	-0.123874195
237	0x3c928a00	0.01788807
238	0xbd9759c0	-0.07390165
239	0xbd3857b3	-0.04500551
240	0x3d11763d	0.03551315
241	0xbe04b637	-0.12960134
242	0xbc9e75e1	-0.019343318
243	0xbe0b0c4f	-0.13578914
244	0xbe3d7aa1	-0.1850381
245	0xbd74c4f0	-0.059758127
246	0xbdbdbf3c	-0.09264991
247	0xbe92d1ae	-0.28675598
248	0xbe5dee27	-0.21672879
249	0xbda25c2b	-0.07927736
250	0xbe0bce51	-0.13652922
251	0xbe6368bb	-0.2220792
252	0x3e2fec2e	0.17179939
253	0x3e0e71b3	0.1391056
254	0x3dc3e37e	0.09564875
255	0xbd4cdab0	-0.050013244

conv2.bias f4 [12]
0	0xbd5b20d6	-0.05349811
1	0xbdd70763	-0.10499456
2	0x3d637b19	0.055537317
3	0x3de74cce	0.11293946
4	0x3e33dfec	0.17565888
5	0xbdb90640	-0.09034395
6	0xbd423c56	-0.047420822
7	0x3d7b5ab9	0.061365817
8	0xbe0fd141	-0.14044668
9	0x3df8b0e3	0.121431135
10	0x3dc21a9e	0.09477733
11	0xbd3febfa	-0.046855904

conv3.weight f4 [12, 12, 3, 3]
0	0x3d735759	0.059409473
1	0xbccca347	-0.0249802
2	0x3c2495af	0.010045453
3	0x3a972c01	0.00115335
4	0xbd0e594a	-0.03475312
5	0xbd9f9726	-0.07792501
6	0x3c670f08	0.014102705
7	0xbdd68332	-0.10474242
8	0xbde78f39	-0.113066144
9	0xbba7f475	-0.005125577
10	0x3d842178	0.06451696
11	0xbc5876e8	-0.013211943
12	0x3d589e35	0.052885253
13	0xbd44efe0	-0.048080325
14	0x3cf2ef8d	0.029655242
15	0x3d204cec	0.03913586
16	0x3ccdcfdd	0.025123531
17	0xbd90d8aa	-0.070725754
18	0x3c6783bd	0.01413053
19	0x3e286639	0.16445245
20	0x3d17834a	0.03699044
21	0x3dffcada	0.12489863
22	0x3de4f280	0.11179066
23	0x3d94be85	0.07262901
24	0x3c695db5	0.014243533
25	0x3dcadad5	0.0990502
26	0x3dfd66b4	0.12373105
27	0x3de8f410	0.11374676
28	0x3dd98fc7	0.106231265
29	0x3e05c5ec	0.13063782
30	0x3e06660a	0.13124862
31	0x3e090311	0.13380076
32	0x3dad32ad	0.08456931
33	0x3c14c48c	0.009080064
34	0x3e169969	0.14706959
35	0x3dc95424	0.09830502
36	0xbac51107	-0.0015034982
37	0x3d0c04b9	0.03418419
38	0x3df0a242	0.11749698
39	0x3c9e72e9	0.019341903
40	0x3ddbe472	0.10736932
41	0x3dc94991	0.09828485
42	0x3e006425	0.12538202
43	0x3dfd07ad	0.1235498
44	0x3dcb4b27	0.099264435
45	0xbd22c3db	-0.039737564
46	0xbde71cc1	-0.11284781
47	0xbe0b8063	-0.13623194
48	0x3bb5434b	0.0055317036
49	0xbdbb1876	-0.09135525
50	0xbdc3c75d	-0.0955951
51	0x3d003bc2	0.03130699
52	0x3d790f4b	0.0608056
53	0xbdb72753	-0.089430474
54	0x3bd79fe2	0.006580339
55	0xbdba18bb	-0.09086748
56	0x3d9b8f39	0.07595677
57	0x3dba3c2b	0.090935074
58	0xbd2628ed	-0.040566374
59	0xbd904ffa	-0.07046504
60	0x3dae8a79	0.08522505
61	0xbdb88a0b	-0.090107046
62	0xbd8a873c	-0.06764075
63	0x3d7a4c22	0.061107762
64	0x3db364f1	0.087594874
65	0x3c46d2d8	0.01213523
66	0x3dcaff92	0.099120274
67	0x3d3e4dde	0.04646098
68	0x3e297e77	0.16552149
69	0x3dd6976b	0.104780994
70	0x3e2e48d3	0.17019968
71	0x3e1fb7f0	0.1559751
72	0x3d999380	0.074988365
73	0xbcefcf05	-0.02927352
74	0xbbd20d80	-0.0064103007
75	0x3de026ff	0.10944938
76	0x3dc04441	0.093880184
77	0x3c42f67f	0.01189959
78	0x3e56739d	0.2094254
79	0x3c734911	0.014848963
80	0x3de73e2d	0.11291156
81	0x3d597bfb	0.053096753
82	0x3e0a8a75	0.1352938
83	0x3bdb833b	0.0066989935
84	0x3ca8f6b3	0.020625448
85	0x3db3d0f3	0.08780088
86	0x3de97468	0.11399156
87	0x3dd47599	0.103739925
88	0x3e02c74f	0.12771343
89	0xbc46eff4	-0.01214217
90	0x3d64eb92	0.05588872
91	0x3e0dfa81	0.13865091
92	0x3dfc4866	0.123184964
93	0x3df7a29c	0.12091562
94	0x3c90af7f	0.017661808
95	0x3dd42b48	0.10359818
96	0xbd06a7fc	-0.032875046
97	0x3e1429a6	0.14469013
98	0x3d9e007c	0.07714936
99	0x3d33adbb	0.043866854
100	0xbd5a95fe	-0.0533657
101	0xbdbe0598	-0.09278411
102	0xbd7d132b	-0.061785858
103	0xbd0b1ec7	-0.0339649
104	0x3da4b2e4	0.08041933
105	0xbd2d56d4	-0.042319134
106	0xbd9ff1a9	-0.07809765
107	0xbd8ae789	-0.06782443
108	0x3e147f3b	0.1450166
109	0x3e4e44fd	0.20143504
110	0x3d736978	0.059426755
111	0x3e7cf080	0.24701118
112	0x3d2e2e98	0.042524904
113	0x3e14a82d	0.14517279
114	0x3ddfe55d	0.109324194
115	0x3e25ec5f	0.1620345
116	0x3e0bc567	0.13649522
117	0x3ea028b8	0.31281066
118	0x3e3bf90c	0.18356723
119	0x3e2cd862	0.16879418
120	0x3e995543	0.29947862
121	0x3e07e712	0.1327174
122	0x3ce6deeb	0.028182467
123	0x3e5168f1	0.20450188
124	0x3d66b5c1	0.056325678
125	0x3d746dcf	0.059675034
126	0xbdef5edf	-0.11688017
127	0xbd78f7ce	-0.0607832
128	0x3d2e5743	0.042563688
129	0xbaf912ae	-0.0019002759
130	0xbccc027a	-0.024903525
131	0x3e000f7d	0.12505908
132	0xbda842cf	-0.08215868
133	0x3cb88695	0.022525111
134	0x3da0205d	0.07818673
135	0xbdd0f6b5	-0.10203306
136	0xbad58ad5	-0.0016291986
137	0x3d8084d5	0.06275336
138	0x3d37d693	0.04488237
139	0x3d2074a6	0.039173745
140	0x3e0160b5	0.12634547
141	0xbcf89b3b	-0.030347457
142	0xbbb1c5ee	-0.0054252064
143	0xbd02b3d1	-0.031909768
144	0xbe0479b9	-0.12937059
145	0x3dc4d70c	0.096113294
146	0x3dd82f5c	0.10555908
147	0xbdd5b40e	-0.10434733
148	0xbce6b7c1	-0.028163793
149	0xbcac40a2	-0.021026913
150	0xbd7ba572	-0.061437078
151	0x3d53335b	0.05156265
152	0x3d688965	0.056771655
153	0x3e3081f1	0.17237069
154	0x3e3279ca	0.17429271
155	0x3dea70d4	0.114473015
156	0x3e8edbfe	0.27902216
157	0x3e162cdd	0.14665551
158	0x3b710725	0.003677794
159	0x3e3d1f19	0.18468894
160	0xbb1a3852	-0.0023532105
161	0x3dfd0257	0.12353962
162	0x3d17693b	0.03696559
163	0x3d39250e	0.045201354
164	0xbd8e88eb	-0.06959709
165	0x3dbea324	0.0930846
166	0x3cfe9b37	0.031079872
167	0xbd3d0955	-0.046151478
168	0xbd466895	-0.04843958
169	0xbdc3707f	-0.09542941
170	0xbd501b24	-0.050807133
171	0xbd8fc194	-0.07019344
172	0x3c247674	0.010038007
173	0xbbfb35e0	-0.0076663345
174	0xbdb3753e	-0.087625965
175	0xbc75e91f	-0.015009194
176	0x3dabe1ad	0.083926536
177	0xbd2d263f	-0.042272802
178	0xbd20fe70	-0.03930515
179	0x3e077972	0.13229921
180	0x3e525b04	0.20542532
181	0xbd5ca2b5	-0.053866107
182	0xbe5a5e93	-0.2132514
183	0x3e0e8572	0.13918093
184	0x3cab78dd	0.020931656
185	0xbe6ab8b4	-0.22922021
186	0x3b2239d9	0.0024753718
187	0xbd710913	-0.058846544
188	0xbe526dae	-0.20549652
189	0xbdc3890b	-0.09547623
190	0x3c77e5a6	0.015130436
191	0x3d90741f	0.07053398
192	0x3d9197d1	0.07109035
193	0x3d10968a	0.035299815
194	0x3e0abb2a	0.1354796
195	0xbb8e7669	-0.0043476117
196	0x3d367a8d	0.044550467
197	0x3d939829	0.072067566
198	0xbe4471a9	-0.19183983
199	0xbdae168c	-0.08500394
200	0x3c9af183	0.01891399
201	0xbd1d46b2	-0.0383975
202	0xbd6d6025	-0.05795302
203	0x3dddc370	0.10828292
204	0xbe3c3bca	-0.18382183
205	0xbd8cc7b4	-0.06874028
206	0x3d59565d	0.053060878
207	0x3da0b335	0.07846681
208	0xbd90eb54	-0.07076135
209	0x3d78a359	0.060702655
210	0xbd3fb3b7	-0.04680225
211	0x3d83e090	0.06439316
212	0x3d0b3542	0.033986337
213	0x3ccdf78f	0.02514246
214	0x3d8be814	0.06831375
215	0x3bc69ffa	0.006061551
216	0x3c9523ea	0.018205602
217	0x3de27623	0.11057689
218	0x3e3a1f65	0.18176039
219	0x3cf2c8a1	0.029636683
220	0x3d93f2b1	0.07224024
221	0x3dc3de22	0.09563853
222	0x3e2945af	0.16530488
223	0x3da9c0a9	0.082887
224	0x3dd8b735	0.10581819
225	0x3da19be1	0.0789106
226	0x3d044e8b	0.032301467
227	0x3dfb3f5f	0.122679465
228	0x3e4f72e0	0.20258665
229	0x3dac58d8	0.08415383
230	0x3d80a9b7	0.062823705
231	0x3e1b26b5	0.15151484
232	0x3e46b7d7	0.19406067
233	0x3dcbc494	0.09949604
234	0xbc99a0e2	-0.018753473
235	0xbe1b17ec	-0.15145844
236	0xbd8ec7ab	-0.069716774
237	0xbe007626	-0.1254507
238	0xbd888baa	-0.06667264
239	0xba9a9317	-0.0011793104
240	0xbe29fda7	-0.16600667
241	0xbd855a64	-0.06511381
242	0x3d941d76	0.07232182
243	0xbe081f86	-0.13293275
244	0xbd9123e9	-0.070869274
245	0xbe3b9701	-0.18319322
246	0xbdfd13b5	-0.123572744
247	0xbe2c65d1	-0.16835715
248	0x3c714798	0.014726542
249	0xbe2076e2	-0.1567035
250	0xbda8d7a1	-0.08244253
251	0xbd0061d4	-0.031343296
252	0xbdbaf646	-0.09129004
253	0xbe030acb	-0.12797086
254	0xbd55c9bf	-0.052194353
255	0xbd077d68	-0.03307858

conv3.bias f4 [12]
0	0x3da07b50	0.0783602
1	0x3c42bb58	0.011885487
2	0x3d53c7db	0.05170427
3	0x3dec423a	0.11536069
4	0x3e2eda0c	0.17075366
5	0xbe492811	-0.1964419
6	0xbcb5459d	-0.02212792
7	0x3dc30281	0.09521962
8	0xbdbb61f6	-0.09149544
9	0xbdff9b81	-0.12480832
10	0xbe3d1767	-0.18465959
11	0x3d83dd5c	0.06438705

conv4.weight f4 [24, 12, 3, 3]
0	0xbdd73e30	-0.10509908
1	0xbdcbe896	-0.099564716
2	0x3c754971	0.014971123
3	0xbd9cfafa	-0.076650575
4	0x3d03a8b0	0.032143295
5	0xbd4ff124	-0.05076708
6	0xbd43ca76	-0.047800504
7	0x3d8697dd	0.06571934
8	0xbd4c97be	-0.0499494
9	0x38829e48	6.228365e-05
10	0x3c66dc22	0.01409057
11	0xbd117ea0	-0.03552115
12	0xbc7aaf8c	-0.015300643
13	0xbc00fcc5	-0.007872765
14	0x3ccaba5b	0.024747064
15	0xbd5a99e1	-0.053369407
16	0xbd3e5f25	-0.046477456
17	0xbdbd9b11	-0.09258092
18	0xbd3162e2	-0.043307193
19	0xbd0f2fc6	-0.03495767
20	0x3d9f5811	0.07780469
21	0xbd20fe12	-0.0393048
22	0x3cee19b2	0.029064987
23	0xbc1a0c31	-0.009402321
24	0x3db2227e	0.08697985
25	0xbdd94bd3	-0.106101654
26	0xbd118db6	-0.035535537
27	0x3d714ec1	0.058912996
28	0xbd3425ca	-0.04398135
29	0x3d655999	0.05599365
30	0xbc7f5ab9	-0.015585595
31	0xbda9e473	-0.08295526
32	0xbd850840	-0.06495714
33	0xbd830b2d	-0.06398616
34	0x3db4bbac	0.08824858
35	0xbdb902ef	-0.09033763
36	0xbdc15ec3	-0.094419025
37	0x3d91360c	0.07090387
38	0x3d13a579	0.03604648
39	0x3b9c3c82	0.0047679553
40	0x3da7ab55	0.08186976
41	0xbd942093	-0.072327755
42	0xbc11d484	-0.008900765
43	0x3c7b7a5c	0.015348997
44	0x3c61c64a	0.013780186
45	0xbda9641f	-0.0827105
46	0xbda09868	-0.07841569
47	0x3d4a8249	0.049440656
48	0xbd62bd3e	-0.055356257
49	0xbc973630	-0.018458456
50	0xbd9f86f3	-0.077894114
51	0x3ca75931	0.020428272
52	0xbccd6f42	-0.025077466
53	0x3dc1fac7	0.0947166
54	0x3d7f71d4	0.062364414
55	0x3be7614f	0.0070611606
56	0x3bb19cd9	0.005420309
57	0xbddf8dfd	-0.10915754
58	0xbd868bcf	-0.06569635
59	0x3ccbf000	0.024894714
60	0x3d8a1e87	0.06744104
61	0xbc490e04	-0.012271408
62	0xbae9dc33	-0.0017842114
63	0x3d26ff3e	0.04077076
64	0x3da7a625	0.081859864
65	0xbd853a1b	-0.06505223
66	0x3ca75fe0	0.020431459
67	0xbd090761	-0.033454303
68	0x3d9632e0	0.073339224
69	0x3d567642	0.052358873
70	0x3db3b38e	0.08774482
71	0xbd27a463	-0.040928256
72	0xbdbcc444	-0.09217122
73	0x3d8f1aba	0.069875196
74	0xbc79bfdb	-0.015243496
75	0xbdb3b824	-0.087753564
76	0xbcd736aa	-0.026271183
77	0x3c792609	0.015206822
78	0x3d25500b	0.040359538
79	0x3cab2e15	0.020895997
80	0xbdcebb73	-0.10094347
81	0xbd64ae30	-0.05583018
82	0xbd535eee	-0.051604204
83	0xbdb0647d	-0.086129166
84	0xbd88204e	-0.06646787
85	0xbd0e692d	-0.034768272
86	0x3c91286f	0.017719476
87	0xbd37ebff	-0.044902798
88	0xbd3c1063	-0.045914065
89	0xbd8b2290	-0.06793702
90	0x3c9198ea	0.01777311
91	0xbd81c508	-0.06336409
92	0xbd448a90	-0.047983706
93	0x3c81ad6a	0.01582976
94	0xbc01a562	-0.0079129655
95	0x3d974bb6	0.073874876
96	0x3d3dc7b9	0.04633305
97	0xbd801f19	-0.062559314
98	0x3d9d658a	0.07685383
99	0x3bd9cc4d	0.006646669
100	0x3d4fb93c	0.050713763
101	0x3c73b34c	0.014874291
102	0xbdc2a19f	-0.09503483
103	0x3d7da2c5	0.061922807
104	0xbdcd8b62	-0.10036351
105	0xbdcac393	-0.09900584
106	0x3d1fc4b1	0.03900594
107	0x3d893445	0.06699423
108	0xbe072fb0	-0.13201785
109	0x3c73825e	0.014862625
110	0xbde09453	-0.109657906
111	0x3cd9bf13	0.02658037
112	0x3dbc5c10	0.09197247
113	0x3c8d102c	0.017219625
114	0xbdb91003	-0.09036257
115	0x3deb7f75	0.1149892
116	0x3dea8899	0.11451835
117	0x3ebc2844	0.3674947
118	0x3d3a5b1a	0.045497037
119	0xbd3619e0	-0.04445827
120	0x3e2c61aa	0.16834131
121	0xbb8606ae	-0.0040901517
122	0x3d739ea2	0.059477456
123	0x3d6be05b	0.05758701
124	0xbd6769de	-0.056497447
125	0x3d8d5de8	0.06902677
126	0xbe16fc3d	-0.14744659
127	0xbe465c45	-0.19371136
128	0xbde5784b	-0.11204585
129	0xbe13c306	-0.14429864
130	0xbe18130f	-0.1485102
131	0xbd986389	-0.0744086
132	0xbe1fd38e	-0.15608045
133	0xbd9f0605	-0.0776482
134	0xbe3d229a	-0.1847023
135	0x3c785ba7	0.01515857
136	0xbd89596c	-0.06706509
137	0x3d5d4426	0.05402007
138	0x3d4807df	0.04883563
139	0x3dc2e14b	0.095156275
140	0x3d5c548d	0.05379157
141	0x3d6c8456	0.057743393
142	0x3dcb79f0	0.09935367
143	0x3ddc2d61	0.10750843
144	0xbe1b88dc	-0.15188926
145	0xbdafe817	-0.085891895
146	0xbda88763	-0.08228948
147	0xbe12b383	-0.14326291
148	0x3ca309b0	0.01990208
149	0xbd502af5	-0.050822217
150	0xbe07c4cd	-0.13258667
151	0x3bb502bb	0.005524007
152	0x3e20aaa1	0.1569009
153	0x3e92c3bf	0.28664967
154	0x3e33cc8a	0.17558494
155	0x3d4b4525	0.04962649
156	0x3e1603de	0.14649913
157	0xbd13ac6d	-0.03605311
158	0xbd901873	-0.07035913
159	0x3bac0405	0.0052495026
160	0x3de00a01	0.10939408
161	0x3d35ce31	0.044386093
162	0x3edbe14f	0.42945334
163	0x3d912181	0.070864685
164	0xbc781a43	-0.01514298
165	0x3e73e024	0.23815972
166	0xbda53085	-0.08065895
167	0x3aeeae1d	0.0018209849
168	0xbc171034	-0.009220172
169	0xbd7bc7cb	-0.061469834
170	0xbe0559a0	-0.1302247
171	0x3b072e5b	0.0020626995
172	0xbda70642	-0.081554905
173	0x3c48b522	0.012250217
174	0xbdb05a5a	-0.08610983
175	0x3d54c2f6	0.05194374
176	0x3e1902ee	0.14942524
177	0x3d483872	0.048881955
178	0x3dce47bb	0.10072275
179	0x3e1235ca	0.14278331
180	0x3ee2c75e	0.4429273
181	0x3daaee44	0.08346227
182	0xbc5d7cd8	-0.013518535
183	0x3cbc94e2	0.023020212
184	0xbdc6d464	-0.09708479
185	0x3d212bf2	0.03934855
186	0x3ca60b4f	0.020269064
187	0x3b1865ee	0.0023254114
188	0xbdac0e6b	-0.084011875
189	0x3dca44ee	0.098764285
190	0x3dacdebb	0.0844092
191	0x3d8a7d69	0.06762201
192	0x3d8d02fd	0.068853356
193	0xbcf408b6	-0.02978931
194	0xbc64d0ec	-0.0139658265
195	0xbcb7694c	-0.022389077
196	0xbc7959f4	-0.0152192
197	0x3e0ef151	0.13959242
198	0x3e6aebba	0.22941485
199	0x3d5147b8	0.051093787
200	0x3d47924f	0.048723515
201	0x3d2da8de	0.042397372
202	0x3c922178	0.017838225
203	0xbd88ba48	-0.06676155
204	0x3dc88398	0.097907245
205	0x3cd27117	0.025688691
206	0xbd96ccca	-0.07363279
207	0x3e9be420	0.30447483
208	0xbd556304	-0.05209638
209	0x3d38498e	0.044992022
210	0x3d60c74b	0.05487756
211	0xbe15259d	-0.1456513
212	0xbe232a17	-0.15934025
213	0x3caf4a40	0.02139771
214	0xbe2c1f44	-0.16808802
215	0xbdbbf015	-0.091766514
216	0x3d7ea801	0.06217194
217	0x3d76ce36	0.06025525
218	0x3de3ea67	0.11128693
219	0x3cdcc8c1	0.026951196
220	0x3ddd713c	0.10812613
221	0xbc9e7135	-0.01934109
222	0x3bc2262a	0.0059249597
223	0x3dcdd663	0.10050657
224	0x3d4e776f	0.05040687
225	0x3da97293	0.082738064
226	0xbcc9d7eb	-0.02463909
227	0x3d827e5e	0.06371759
228	0x3d18a48a	0.03726629
229	0x3d978ede	0.07400297
230	0x3d68f6bb	0.056875926
231	0x3e29ded1	0.16588904
232	0xbd21e149	-0.03952149
233	0xbb52c4e5	-0.0032160815
234	0x3dc078b2	0.09398021
235	0xbc21aa4b	-0.009867261
236	0xbd38e862	-0.045143493
237	0xbdd75b43	-0.10515454
238	0xbdc5b28c	-0.09653196
239	0xbe6ee39d	-0.23329015
240	0xbdc368f3	-0.09541502
241	0xbb8000ef	-0.0039063613
242	0xbded3e3b	-0.11584135
243	0x3dc7f7ea	0.09764083
244	0x3dc0b6ae	0.094098434
245	0x3c425a0b	0.011862288
246	0x3d095b07	0.033534076
247	0x3dc5bc12	0.09655012
248	0x3db9d9a6	0.09074716
249	0x3d56e0b0	0.052460372
250	0x3c4c1b65	0.012457703
251	0xbcb54283	-0.022126442
252	0xbcccf35c	-0.025018387
253	0x3dd40755	0.10352961
254	0x3da30d52	0.07961525
255	0xbdb0008b	-0.085938536

conv4.bias f4 [24]
0	0xbdd2cc1c	-0.10292837
1	0xbdc5dcdc	-0.09661266
2	0xbc3b5075	-0.011432757
3	0xbd65932e	-0.056048565
4	0xbdbdf3d9	-0.09275026
5	0xbe01840f	-0.12648033
6	0xbd3a2943	-0.045449506
7	0x3ccf5212	0.025307689
8	0xbd9155c8	-0.070964396
9	0xbdfb4a37	-0.12270015
10	0xbcd2f3cb	-0.025751015
11	0x3c99c417	0.01877026
12	0xbcc93d2c	-0.024565302
13	0x3adfaf2c	0.0017065755
14	0x3db86f5e	0.090056166
15	0xbcad5c4c	-0.021162175
16	0xbab04a46	-0.001344987
17	0xbdcaee0b	-0.09908684
18	0x3d165e49	0.03671101
19	0xbd82cd77	-0.063868456
20	0xbddba45e	-0.1072471
21	0x3d9feaff	0.07808494
22	0x3b2cfb3a	0.002639486
23	0xbdf0dc07	-0.11760717

conv5.weight f4 [36, 24, 3, 3]
0	0xbd761dc2	-0.060086973
1	0xbb0de4c8	-0.0021651257
2	0xbcb9cd95	-0.022681037
3	0x3ccf6cd1	0.025320442
4	0x3c1746e8	0.009233214
5	0x3d4e3f89	0.05035356
6	0xbd7245bb	-0.05914853
7	0xbd5d8ca6	-0.05408921
8	0x3c143ca9	0.009047666
9	0x3e43c8fb	0.19119637
10	0x3ca9df4c	0.020736359
11	0xbd055768	-0.03255406
12	0x3d971b1e	0.07378219
13	0xbda2ae38	-0.07943386
14	0xbd9e2ef2	-0.07723798
15	0x3cc24cf8	0.023718342
16	0x3cc77b7b	0.024350872
17	0xbd8410b4	-0.06448498
18	0x3d18b27a	0.037279584
19	0xbc84bae1	-0.016202392
20	0xbd7ba131	-0.06143302
21	0xbd1b3594	-0.037892893
22	0x3c01f4f4	0.0079319365
23	0xbd8e35a6	-0.069438264
24	0xbd671037	-0.056411948
25	0x3d59f744	0.053214327
26	0xbacb09cb	-0.001549059
27	0x3e879f18	0.26488566
28	0x3ad4aa2a	0.0016225029
29	0x3ca4fb81	0.020139458
30	0x3cc9697f	0.024586437
31	0xbddeab8c	-0.10872564
32	0x3c8b7288	0.017022386
33	0xbd88b55e	-0.06675218
34	0x3c0654d9	0.00819894
35	0x3cde37d6	0.027126234
36	0x3e0ac9ba	0.13553515
37	0x3d0fd70b	0.03511719
38	0x3cd9ac86	0.026571523
39	0xbba633e6	-0.0050721047
40	0x3d0c2eaf	0.03422421
41	0xba310e3a	-0.0006754134
42	0x3ce597e4	0.028026529
43	0xbd9b4558	-0.07581586
44	0x3b249d1d	0.002511806
45	0x3d344927	0.044015076
46	0xbbac6e53	-0.005262175
47	0x3c1f75e8	0.009732701
48	0x3d53de57	0.05172571
49	0x3cebf9a0	0.028805554
50	0xbd4fa238	-0.050691813
51	0xbd098033	-0.033569526
52	0xbd31dc44	-0.043422952
53	0x3d29a1fc	0.041414246
54	0xbd5a538e	-0.05330234
55	0xbd3f3058	-0.046676964
56	0x3d054ad0	0.03254205
57	0xbd6b68d5	-0.057473022
58	0xbc3fa5c9	-0.011697241
59	0x3d120665	0.03565063
60	0x3cea23a3	0.028581446
61	0xbcd6392b	-0.026150307
62	0xbd5af115	-0.05345257
63	0xbbace20f	-0.0052759717
64	0xbd06900b	-0.032852214
65	0xbd52c565	-0.05145778
66	0x3d983e46	0.07433753
67	0x39903dd3	0.00027511883
68	0x3d3b3aa6	0.04571023
69	0x3d324043	0.043518316
70	0xbd2aca59	-0.04169688
71	0x3c82b6a6	0.015956234
72	0x3e8f39a8	0.27973676
73	0x3cc3c4e9	0.023897605
74	0xbdcb7b74	-0.09935656
75	0x3d38a0fa	0.045075394
76	0x3c4cb013	0.012493151
77	0xbdc7af91	-0.097502835
78	0xbd4e3dc7	-0.050351884
79	0x3d98e880	0.07466221
80	0xbd5a706a	-0.053329863
81	0x3ea3b4b9	0.31973818
82	0xbc14c35b	-0.0090797795
83	0xbd774b6d	-0.060374666
84	0x3c6ed868	0.014577962
85	0xbd079707	-0.033103015
86	0xbdab46f1	-0.083631404
87	0x3bf01cbb	0.0073276437
88	0xbd712509	-0.05887321
89	0x3dab9a5a	0.083790496
90	0xbd554471	-0.052067224
91	0x3d3f25fc	0.046667084
92	0x3cf3c38e	0.029756334
93	0x3d861a05	0.065479316
94	0x3d640f50	0.055678666
95	0xbdad44ad	-0.084603645
96	0xbda6295a	-0.08113356
97	0xbb3e11ad	-0.0029002235
98	0xbc033e5e	-0.008010475
99	0xbc889ce6	-0.016676378
100	0xbc863e9e	-0.01638728
101	0xbca6210c	-0.02027943
102	0xbe063430	-0.13105845
103	0x3decec2e	0.11568485
104	0xbd523885	-0.051323432
105	0xbccd034e	-0.02502599
106	0xbcb131e7	-0.02163024
107	0xbe28e8ec	-0.16495103
108	0x3dc140a9	0.09436161
109	0x3d071d34	0.032986835
110	0xbd11d908	-0.035607368
111	0x3d206cd9	0.039166305
112	0xbc24a2d3	-0.010048586
113	0xbda76d75	-0.08175174
114	0xbcd575a3	-0.02605707
115	0x3c9ca448	0.019121304
116	0xbd352a93	-0.044230055
117	0xbd1f8665	-0.038946528
118	0xbd5e05a1	-0.054204587
119	0x3b598da4	0.0033195997
120	0xbcc56ff4	-0.024101235
121	0x3c5616b9	0.013066941
122	0x3d81bb49	0.0633455
123	0x3c629bbe	0.013831077
124	0xbd3b00cc	-0.045655057
125	0x3d028dac	0.03187339
126	0xbd42936c	-0.047503874
127	0x3d43ea91	0.04783112
128	0xbda10943	-0.07863095
129	0x3d923646	0.07139258
130	0x3e09ae5d	0.1344542
131	0xbccd2a57	-0.025044603
132	0x3d48c4bf	0.049015757
133	0x3d6b81ca	0.057496823
134	0xbda402bf	-0.08008336
135	0x3d26cf92	0.0407253
136	0x3d3711e4	0.044694796
137	0xbd604a5f	-0.054758426
138	0xbc5e4c9f	-0.013568073
139	0xbd05324f	-0.03251868
140	0x3c9106f1	0.017703505
141	0xbc484f2f	-0.01222591
142	0xbc44e78a	-0.012018094
143	0xbcb91de8	-0.022597268
144	0x3e18e107	0.14929591
145	0x3e7a2dee	0.24431583
146	0x3de87b24	0.11351612
147	0x3d51bd15	0.051205713
148	0x3e55ea63	0.20890193
149	0xbd8b132d	-0.06790767
150	0x3c79dfd7	0.0152511215
151	0x3e4fc0c9	0.20288385
152	0x3d263af7	0.040583577
153	0xbc41ce94	-0.011829037
154	0x3d55cb90	0.052196085
155	0x3c86a6ec	0.016437016
156	0x3d530da9	0.0515267
157	0xba955214	-0.0011392259
158	0xbd5ebe5f	-0.05438077
159	0x3d10579a	0.035239793
160	0x3cfe9fda	0.031082083
161	0xbd86e58d	-0.06586752
162	0x3d9a46fe	0.07533072
163	0xbd548d18	-0.05189237
164	0xbd1b218e	-0.037873797
165	0x3cdda955	0.027058283
166	0xbc556aa1	-0.013025911
167	0xbdb1574a	-0.08659227
168	0xbcb32719	-0.02186923
169	0x3d117a87	0.03551724
170	0xbd7e824c	-0.06213598
171	0x3e9ec976	0.31013077
172	0x3b528eec	0.0032128645
173	0x3e030f30	0.12798762
174	0x3d2c7f69	0.042113695
175	0x3caaecfa	0.020864952
176	0xbd527f5e	-0.051390998
177	0x3e0df6b0	0.13863635
178	0x3d8b37bd	0.067977406
179	0xbd9e91b3	-0.07742634
180	0x3e08ecb6	0.13371548
181	0xbd83637d	-0.0641546
182	0xbd1e8ad1	-0.038706604
183	0x3d089eba	0.0333545
184	0xbd58bf84	-0.05291702
185	0xbd3c62d4	-0.045992687
186	0x3d3aa33f	0.04556584
187	0xbda7fe3d	-0.08202789
188	0xbd83d182	-0.06436445
189	0x3d6ca17a	0.057771184
190	0xbc3a25ce	-0.011361552
191	0x3c90a000	0.017654419
192	0x3df80932	0.12111129
193	0x3ba6f5d5	0.0050952234
194	0xbd9ebce6	-0.07750873
195	0x3d0d797c	0.034539685
196	0xbd5a1376	-0.053241216
197	0xbd91659c	-0.070994586
198	0x3e7cd602	0.24691013
199	0xbce41cb9	-0.027845727
200	0x3dfbf1a1	0.123019464
201	0x3df5a3b0	0.119941115
202	0xbd5c6ce5	-0.053814787
203	0x3de47bfb	0.1115646
204	0x3d97b7f0	0.0740813
205	0x3d8056df	0.06266569
206	0x3d200bab	0.039073627
207	0x3d8778c1	0.06614829
208	0xbd623cbd	-0.055233706
209	0xbd396f94	-0.045272425
210	0x3dadb817	0.08482378
211	0xbd422682	-0.047400005
212	0xbd882e8e	-0.066495046
213	0x3ceffa55	0.029294172
214	0xbd370169	-0.04467908
215	0xbdb6beb3	-0.08923092
216	0x3d669de7	0.05630293
217	0x3b2ccf47	0.0026368664
218	0xbd64aa84	-0.05582668
219	0xbd7b6755	-0.061377842
220	0xbda69a13	-0.08134856
221	0xbd214edf	-0.039381858
222	0xbd45fcdc	-0.04833685
223	0x3d7d3d2e	0.061825924
224	0x3cf0647e	0.029344793
225	0x3de117a4	0.10990837
226	0x3c6a5405	0.014302258
227	0xbbd3005b	-0.0064392514
228	0x3d602870	0.054726064
229	0xbd04c2cc	-0.032412335
230	0xbda4627b	-0.08026596
231	0x3d3c57f5	0.04598232
232	0x3d2d0189	0.042237792
233	0x3c8a2ada	0.016866136
234	0x3aca2e0f	0.0015425103
235	0x3cea48fe	0.028599259
236	0xbd681032	-0.05665607
237	0xbbab85f6	-0.0052344752
238	0x3dd45c68	0.103691876
239	0x3d2c6ddf	0.04209697
240	0xbce5ae4f	-0.028037218
241	0x3c2d4071	0.010574446
242	0x3d37c349	0.044863973
243	0x3e4f46c4	0.20241839
244	0x3c210816	0.009828588
245	0x3cf26269	0.029587941
246	0x3cb6eada	0.022328783
247	0xbd9ff827	-0.07811003
248	0xbd2f288c	-0.042763278
249	0x3c9e7ed9	0.019347595
250	0x3c601ed1	0.013679222
251	0xbd6fa951	-0.058511082
252	0xbcd9471f	-0.026523171
253	0x3d1367ef	0.03598779
254	0x3c372e11	0.011180417
255	0x3d2247d2	0.039619274

conv5.bias f4 [36]
0	0xbdd06871	-0.101761706
1	0xbdd1467b	-0.10218521
2	0x3e1662f3	0.14686184
3	0xbd9d37ba	-0.076766446
4	0xbdca31d1	-0.09872783
5	0x3daa43f9	0.08313746
6	0x3dfb18c1	0.12260581
7	0x3cad607e	0.021164175
8	0xbd67d246	-0.056597017
9	0xbd850209	-0.06494529
10	0x3bff659d	0.0077940957
11	0x3e469fa6	0.19396839
12	0xbd4c9308	-0.049944907
13	0x3d345774	0.044028714
14	0x3c827c89	0.015928524
15	0xbbbbc5d6	-0.005730371
16	0x3cf54ab8	0.029942855
17	0xbd8cade8	-0.068691075
18	0xbc67be03	-0.014144423
19	0x3ca8cf87	0.02060677
20	0x3c975e3f	0.018477557
21	0xbc8552e2	-0.016274873
22	0xbd750a63	-0.05982436
23	0xbcd38e04	-0.025824554
24	0xbd9cc352	-0.07654442
25	0xbdd95fb5	-0.10613958
26	0xbc0a65cd	-0.008447123
27	0xbb2e7fce	-0.002662647
28	0xbd41c3e4	-0.047305956
29	0xbb50738c	-0.0031807153
30	0xbc45a1e3	-0.012062523
31	0x3d7091e6	0.05873289
32	0xbd91d4de	-0.07120679
33	0xbdb95764	-0.090498716
34	0xbcea2cb5	-0.028585771
35	0xbc9e0627	-0.019290043

fc1.weight f4 [100, 144]
0	0x3de4afb3	0.111663245
1	0xbc0b0dbd	-0.008487162
2	0x3da3c058	0.07995671
3	0xbd490695	-0.049078543
4	0x3d17b605	0.03703882
5	0xbc9b83a3	-0.018983668
6	0x3dc0a14f	0.09405767
7	0xbd9420cd	-0.07232819
8	0x3b2e76ce	0.0026621106
9	0xbd4a7f60	-0.04943788
10	0x3db13c56	0.08654086
11	0x3cab9a37	0.020947559
12	0xbcf7c67d	-0.030246014
13	0xbab3b096	-0.0013709243
14	0x3da83d70	0.08214843
15	0xbd2153a3	-0.039386403
16	0xbb75ad0e	-0.0037487182
17	0xbcddd5ef	-0.02707955
18	0xbcafc1ee	-0.021454778
19	0xbdc009d6	-0.09376876
20	0x3d2b9c19	0.041896913
21	0x3dfbdfd5	0.12298552
22	0xbd91cb86	-0.07118897
23	0x3cfb8755	0.03070418
24	0x3dbe4348	0.09290177
25	0x3d480c68	0.048839957
26	0xbdc22a5e	-0.09480737
27	0x3debe442	0.11518146
28	0x3da414db	0.0801179
29	0xbc81278e	-0.015765931
30	0xbc02ce5c	-0.00798377
31	0x3d7b8a39	0.061411116
32	0x3d0048fb	0.0313196
33	0xbd12ec2b	-0.03586976
34	0x3dd95010	0.10610974
35	0x3c27b867	0.010236836
36	0x3ce9d26b	0.028542718
37	0x3dceceaf	0.100980155
38	0x3b7a6f44	0.0038213292
39	0x3ce15aa0	0.027509034
40	0xbd11476a	-0.035468496
41	0xbd41afdc	-0.047286853
42	0xbab02fad	-0.0013441943
43	0xbd62f453	-0.055408787
44	0x3c554886	0.013017779
45	0xbc942584	-0.018084295
46	0xbd83dc25	-0.064384736
47	0x3c12a5a5	0.008950626
48	0xbc1141ae	-0.008865757
49	0x3d029c48	0.031887323
50	0x3cf942b9	0.030427324
51	0x3d387253	0.045030903
52	0xbd11c666	-0.035589598
53	0xbdb6f1d8	-0.08932847
54	0x3d75ff3d	0.060057867
55	0xbd14fb71	-0.036372606
56	0xbd8b9f0f	-0.068174474
57	0xbd43a167	-0.047761347
58	0x3d35c9aa	0.044381775
59	0xbd7047bb	-0.058662158
60	0x3d13acc1	0.036053423
61	0x3d1e875b	0.038703304
62	0x3d51397a	0.051080205
63	0xbca30dcc	-0.01990404
64	0x3d73e187	0.05954125
65	0x3db61c0a	0.08892067
66	0x3d9ed3ce	0.07755242
67	0xbc6e4061	-0.014541716
68	0x3dc52950	0.0962702
69	0x3d6f9914	0.058495596
70	0xbc2b983c	-0.010473307
71	0xbd87a3a3	-0.06623008
72	0x3cb1709b	0.02166014
73	0x3c26ac0e	0.010172857
74	0xbb4d31c8	-0.003131019
75	0xbe06d880	-0.13168526
76	0x3cf200c1	0.029541375
77	0x3d9c2919	0.07625026
78	0x3ddb5d25	0.10711125
79	0x3e051903	0.12997822
80	0xbd6d4d2a	-0.057934918
81	0x3d222c70	0.03959316
82	0xbd6069a5	-0.05478825
83	0x3cf984a0	0.030458748
84	0x3d2f5174	0.04280229
85	0x3da83bec	0.08214554
86	0xbd744009	-0.05963138
87	0xbce70b64	-0.028203674
88	0x3d06d06b	0.032913607
89	0x3aae3460	0.0013290755
90	0x3c3c42e3	0.011490556
91	0x3bc7d986	0.006098929
92	0x3d84478f	0.06458961
93	0x3d8590e9	0.0652178
94	0x3c722448	0.014779158
95	0xbd7906bd	-0.06079744
96	0xbd6fcf14	-0.058547094
97	0x3d1276e3	0.03575791
98	0x3e03ce4b	0.12871663
99	0xbcb1be41	-0.021697165
100	0xbd047037	-0.03233358
101	0x3d891a50	0.06694472
102	0x3b3e1422	0.00290037
103	0x3ca71d51	0.020399721
104	0x3d88b590	0.06675255
105	0xbcc1b64f	-0.023646502
106	0x3cc903e9	0.024537997
107	0xbd08e582	-0.033422
108	0x3db64d1b	0.089014255
109	0xbd01c635	-0.031683166
110	0x3d8c089c	0.068375796
111	0xbd729921	-0.059228066
112	0x3c29a366	0.010353899
113	0x3c3b51ed	0.011433107
114	0x3d3bb527	0.045827057
115	0x3c0f2d07	0.008738763
116	0xbd5c74ff	-0.053822514
117	0xbc8d35fc	-0.017237656
118	0xbb587b01	-0.00330323
119	0x3cd5b07b	0.026085129
120	0x3ce617e7	0.02808757
121	0x3d48d720	0.049033284
122	0xbc670e83	-0.014102581
123	0x3d44b5f9	0.048025105
124	0x3dc0dede	0.094175085
125	0xb8b85103	-8.788893e-05
126	0x3b431439	0.0029766692
127	0x3b9cf1c5	0.0047895634
128	0xbd1a73fc	-0.037708268
129	0x3ce15431	0.027505966
130	0xbc213f2b	-0.009841721
131	0xbd140cbc	-0.036144957
132	0x3c8d0af7	0.017217143
133	0xbd1abde2	-0.037778743
134	0x3d3eb546	0.046559595
135	0x3d6324ac	0.055454895
136	0xbd2f6e25	-0.04282965
137	0xbd7d7a6b	-0.061884325
138	0x3c331f20	0.010932714
139	0xbd59b235	-0.053148467
140	0x3e0dd8d8	0.1385225
141	0x3cd9e66a	0.026599128
142	0x3d496106	0.049164794
143	0xbb89c7d5	-0.00420473
144	0xbd950ce2	-0.07277848
145	0x3d52ed9d	0.051496137
146	0xbcb8a7f9	-0.022541033
147	0x3dc04f03	0.0939007
148	0xbc6f0aef	-0.014590009
149	0x3c44bca2	0.012007864
150	0xbb9c38f7	-0.004767533
151	0xbca515d1	-0.020152004
152	0xbe02acc5	-0.12761219
153	0x3cfb2598	0.030657575
154	0x3a78b7dc	0.00094878464
155	0x3e0cca5b	0.13749067
156	0xbd867ddc	-0.065669745
157	0x3cb7f696	0.022456449
158	0x3c78aaf5	0.015177478
159	0x3c640764	0.013917778
160	0xbd9107df	-0.070815794
161	0xbd10f2b4	-0.03538771
162	0xbbe3ae13	-0.0069482415
163	0x3ddcade3	0.10775354
164	0x3dabc576	0.08387272
165	0xbcf63feb	-0.030059775
166	0x3d78d193	0.06074674
167	0x3d4db343	0.050219785
168	0x3c36aeb2	0.011150049
169	0xbcd8b316	-0.026452582
170	0x3d96171c	0.073286265
171	0xbd46bfa6	-0.048522614
172	0x3d8126c1	0.0630622
173	0xbda43846	-0.08018546
174	0xbd4c7277	-0.04991385
175	0xbd4317e4	-0.047630206
176	0xbd0c9f41	-0.034331564
177	0x3cb3c73e	0.021945592
178	0x3c6b46f3	0.014360177
179	0x3d10efe0	0.035385013
180	0xbd6dd9d5	-0.05806907
181	0xbe03e540	-0.1288042
182	0x3d4d8bcb	0.050182145
183	0xbcf989df	-0.03046125
184	0x3c96927f	0.018380402
185	0xbd5b1cf1	-0.053494398
186	0x3cae68de	0.021290239
187	0x3d12a808	0.03580478
188	0x3da4e527	0.0805152
189	0xbc9339ec	-0.017971955
190	0x3e1b1e10	0.15148187
191	0xbcbd54d0	-0.02311173
192	0xbda7e50a	-0.081979826
193	0x3cc87d50	0.024473816
194	0xbda0f798	-0.07859725
195	0x3cb75ffb	0.022384634
196	0xbd9dabc5	-0.07698778
197	0x3d504459	0.05084643
198	0xbd557ddf	-0.052121993
199	0xbc94cf07	-0.018165125
200	0x3d9d8476	0.076912805
201	0x3c8581a7	0.016297175
202	0x3ddca25f	0.10773157
203	0x3cc00688	0.023440614
204	0x3d5eaf9b	0.05436669
205	0x3da857a0	0.08219838
206	0x3d120ebd	0.035658587
207	0x3dfe1482	0.12406255
208	0x3d144ce6	0.03620615
209	0xbd848c63	-0.06472089
210	0x3dbd3b01	0.0923977
211	0x3da51289	0.08060176
212	0xbe12360c	-0.1427843
213	0x3d32cf0f	0.043654498
214	0x3d46abc8	0.048503667
215	0x3d906af5	0.070516504
216	0xbdee5600	-0.11637497
217	0x3e10e532	0.14149931
218	0x3d7f1f15	0.0622855
219	0x3dd87c89	0.10570628
220	0xbde4e137	-0.11175769
221	0x3d3c0ccb	0.045910638
222	0xbd6b1b1a	-0.057398893
223	0xbc4f93e9	-0.012669542
224	0x3db7cc7f	0.089745514
225	0x3db43ccc	0.088006586
226	0xbc5b3baa	-0.013380924
227	0x3cc8fc92	0.024534497
228	0xbd45e3ab	-0.048312824
229	0xbd45656d	-0.04819243
230	0x3d8c46e9	0.068494625
231	0x3d326bb0	0.04355973
232	0xbd67d5bd	-0.05660032
233	0xbd9536d3	-0.072858475
234	0x3d7496a3	0.05971397
235	0x3d6530db	0.055954795
236	0x3cc06cec	0.023489438
237	0x3c855fba	0.016280998
238	0x3d63d608	0.055624038
239	0xbd0f76a9	-0.035025273
240	0xbd14b398	-0.036304086
241	0xbdc52295	-0.096257366
242	0xbd8a077a	-0.06739707
243	0xbdfce48a	-0.12348278
244	0xbda1d7a9	-0.07902462
245	0xbcbee9db	-0.02330487
246	0xbcc7ae5e	-0.024375137
247	0x3d294a5d	0.041330684
248	0x3c01950b	0.00790907
249	0x3ddd9849	0.10820062
250	0xbdb7bce3	-0.08971574
251	0x3da17771	0.0788411
252	0xbd120301	-0.035647396
253	0xbc9b9cb1	-0.018995615
254	0xbcda0ecf	-0.02661839
255	0xbd808f84	-0.062773734

fc1.bias f4 [100]
0	0xbca82135	-0.020523647
1	0x3e23b93b	0.15988629
2	0x3e1a3e7e	0.15062901
3	0xbe43d2c2	-0.19123366
4	0x3d45bd9e	0.048276536
5	0x3e181ab1	0.14853932
6	0x3e0d0a61	0.1377349
7	0xb92bb187	-0.00016373965
8	0x3ddd33cc	0.10800895
9	0xbd5e6e53	-0.054304432
10	0xbd496080	-0.049164295
11	0x3e0381a2	0.1284242
12	0xbc5e1a68	-0.0135561
13	0xbdee5f61	-0.11639286
14	0x3e484b02	0.19559863
15	0xbd7fd62e	-0.062460117
16	0xbd4cf410	-0.050037444
17	0xbca5620f	-0.02018836
18	0x3ddae49c	0.10688135
19	0x3e3117ce	0.17294237
20	0xbe2b18d2	-0.16708687
21	0xbd57a300	-0.052645683
22	0xbd4275ac	-0.047475502
23	0x3e1a4d82	0.1506863
24	0xbdb5fe7e	-0.08886431
25	0xbd9975cc	-0.07493171
26	0xbe1eef0f	-0.15520881
27	0xbdbee4f3	-0.09321012
28	0xbd912400	-0.070869446
29	0xbe13ffa8	-0.14452994
30	0xbcf07e85	-0.029357204
31	0x3e1ceab1	0.15323903
32	0x3e2a93dd	0.16657968
33	0x3dfdf390	0.123999715
34	0x3e344095	0.17602761
35	0x3e195cdf	0.14976834
36	0xbdcdc1fa	-0.10046764
37	0xbc4a68a1	-0.012354047
38	0xbc68fbf5	-0.0142202275
39	0xbc338774	-0.0109575875
40	0x3e0ef74a	0.13961521
41	0x3dab29e6	0.08357601
42	0xbd48c069	-0.04901162
43	0xbd9695ea	-0.073528126
44	0xbd0a3096	-0.03373774
45	0xbdd61ca0	-0.104546785
46	0x3c59b1b3	0.013286996
47	0xbcfb4a03	-0.03067494
48	0xbe1225c4	-0.14272219
49	0x3e1cafa6	0.1530138
50	0x3e000458	0.12501657
51	0xbe3fbd7b	-0.18724625
52	0xbdbf26a8	-0.09333545
53	0xbdc38afd	-0.09547994
54	0x3e4b3fa7	0.198485
55	0x3da7bf1d	0.08190749
56	0x3e0d868a	0.13820854
57	0xbd03aeb1	-0.03214902
58	0x3e38c4bd	0.180438
59	0x3e294cea	0.16533247
60	0x3d390e05	0.045179386
61	0x3e31080f	0.1728823
62	0x3e16bf2a	0.14721361
63	0xbce3e1c4	-0.027817614
64	0xbd8114c8	-0.06302792
65	0x3da671cc	0.08127174
66	0xbd0edb69	-0.034877215
67	0x3e7fb884	0.24972731
68	0x3e36b98c	0.17844218
69	0x3df5fdc0	0.120112896
70	0x3cdf8837	0.027286632
71	0xbc859947	-0.01630844
72	0xbc9dd522	-0.019266669
73	0x3e4efbdc	0.20213264
74	0xbde0a3dd	-0.109687544
75	0xbcb1e5f4	-0.021716096
76	0x3e020398	0.12696683
77	0x3d5c3693	0.053762984
78	0x3e54d858	0.20785654
79	0x3dc763cf	0.09735834
80	0xbded0817	-0.11573809
81	0xbdae0c3c	-0.08498427
82	0x3d65cdc0	0.05610442
83	0x3e3a4c47	0.1819316
84	0xbd546881	-0.051857475
85	0xbdd36c5b	-0.103234015
86	0x3da5331c	0.08066389
87	0xbd49eec8	-0.049299985
88	0xbdbbe8e6	-0.09175281
89	0x3e383ad2	0.17991188
90	0xbd097450	-0.03355819
91	0x3d2fc24d	0.04290991
92	0x3e4a6d1f	0.19768189
93	0xbb9e11b1	-0.0048238863
94	0x3b5fcc61	0.003414892
95	0xbdbe3efd	-0.09289358
96	0x3e1a8f1e	0.15093657
97	0xbd19e152	-0.037568398
98	0xbdfe2f20	-0.12411332
99	0xbdfe4392	-0.12415232
